…
I,
Model Name: EnsNet
net_params={'num_layers': 3, 'hidden': 64, 'dropout': 0.1, 'model_type': 'ThreeModel', 'temperature': 1, 'beta': 2, 'gama': 0.0005, 'yta': 100, 'alpha': 1, 'ds_name': 'IMDB-MULTI', 'in_channels': 89, 'out_channels': 3, 'device': 'cuda:1'}
train_config={'epochs': 300, 'batch_size': 64, 'seed': 8971, 'patience': 50, 'lr': 0.005, 'weight_decay': 1e-05}
EnsNet(
  (model1): SAGPool(
    (convs): ModuleList(
      (0): SAGEConv(89, 64)
      (1): SAGEConv(64, 64)
    )
    (pools): ModuleList(
      (0): SAGPooling(
        (score_layer): GCNConv(128, 1)
      )
    )
    (lin1): Linear(in_features=256, out_features=64, bias=True)
    (gsnorm): GraphSizeNorm()
    (bns): ModuleList(
      (0): BatchNorm(64)
      (1): BatchNorm(64)
    )
    (lin2): Linear(in_features=64, out_features=32, bias=True)
    (lin3): Linear(in_features=32, out_features=3, bias=True)
  )
  (model2): SAGPool(
    (convs): ModuleList(
      (0): SAGEConv(89, 64)
      (1): SAGEConv(64, 64)
    )
    (pools): ModuleList(
      (0): SAGPooling(
        (score_layer): GCNConv(64, 1)
      )
      (1): SAGPooling(
        (score_layer): GCNConv(64, 1)
      )
    )
    (lin1): Linear(in_features=128, out_features=64, bias=True)
    (gsnorm): GraphSizeNorm()
    (bns): ModuleList(
      (0): BatchNorm(64)
      (1): BatchNorm(64)
    )
    (lin2): Linear(in_features=64, out_features=32, bias=True)
    (lin3): Linear(in_features=32, out_features=3, bias=True)
  )
  (model3): GlobalAttentionNet(
    (convs): ModuleList(
      (0): SAGEConv(89, 64)
      (1): SAGEConv(64, 64)
      (2): SAGEConv(64, 64)
    )
    (att): GlobalAttention(gate_nn=Linear(in_features=64, out_features=1, bias=True), nn=None)
    (dropout): Dropout(p=0.5, inplace=False)
    (gsnorm): GraphSizeNorm()
    (bns): ModuleList(
      (0): BatchNorm(64)
      (1): BatchNorm(64)
      (2): BatchNorm(64)
    )
    (lin1): Linear(in_features=64, out_features=64, bias=True)
    (lin2): Linear(in_features=64, out_features=3, bias=True)
  )
  (confiNet): Sequential(
    (0): Linear(in_features=67, out_features=33, bias=True)
    (1): ReLU()
    (2): Linear(in_features=33, out_features=1, bias=True)
    (3): Sigmoid()
  )
)

fold [0/10] is start!!
[01/0001] | train_loss:4.3794 val_acc:36.6667 val_loss:1.1007
model is saved at epoch 1!![01/0002] | train_loss:4.2432 val_acc:38.6667 val_loss:1.0805
model is saved at epoch 2!![01/0003] | train_loss:4.1485 val_acc:52.0 val_loss:1.0352
model is saved at epoch 3!![01/0004] | train_loss:4.0459 val_acc:56.0 val_loss:0.9426
…
