…
t: PROTEINS,
Model Name: EnsNet
net_params={'num_layers': 3, 'hidden': 64, 'dropout': 0.1, 'ds_name': 'PROTEINS', 'model_type': 'ThreeModel', 'temperature': 1, 'beta': 2, 'gama': 1, 'yta': 150, 'alpha': 1, 'in_channels': 3, 'out_channels': 2, 'device': 'cuda:3'}
train_config={'epochs': 300, 'batch_size': 64, 'seed': 8971, 'patience': 50, 'lr': 0.01, 'weight_decay': 1e-05}
EnsNet(
  (model1): SAGPool(
    (convs): ModuleList(
      (0): SAGEConv(3, 64)
      (1): SAGEConv(64, 64)
    )
    (pools): ModuleList(
      (0): SAGPooling(
        (score_layer): GCNConv(128, 1)
      )
    )
    (lin1): Linear(in_features=256, out_features=64, bias=True)
    (gsnorm): GraphSizeNorm()
    (bns): ModuleList(
      (0): BatchNorm(64)
      (1): BatchNorm(64)
    )
    (lin2): Linear(in_features=64, out_features=32, bias=True)
    (lin3): Linear(in_features=32, out_features=2, bias=True)
  )
  (model2): SAGPool(
    (convs): ModuleList(
      (0): SAGEConv(3, 64)
      (1): SAGEConv(64, 64)
    )
    (pools): ModuleList(
      (0): SAGPooling(
        (score_layer): GCNConv(64, 1)
      )
      (1): SAGPooling(
        (score_layer): GCNConv(64, 1)
      )
    )
    (lin1): Linear(in_features=128, out_features=64, bias=True)
    (gsnorm): GraphSizeNorm()
    (bns): ModuleList(
      (0): BatchNorm(64)
      (1): BatchNorm(64)
    )
    (lin2): Linear(in_features=64, out_features=32, bias=True)
    (lin3): Linear(in_features=32, out_features=2, bias=True)
  )
  (model3): GlobalAttentionNet(
    (convs): ModuleList(
      (0): SAGEConv(3, 64)
      (1): SAGEConv(64, 64)
    )
    (att): GlobalAttention(gate_nn=Linear(in_features=64, out_features=1, bias=True), nn=None)
    (dropout): Dropout(p=0.4, inplace=False)
    (gsnorm): GraphSizeNorm()
    (bns): ModuleList(
      (0): BatchNorm(64)
      (1): BatchNorm(64)
    )
    (lin1): Linear(in_features=64, out_features=64, bias=True)
    (lin2): Linear(in_features=64, out_features=2, bias=True)
  )
  (confiNet): Sequential(
    (0): Linear(in_features=66, out_features=33, bias=True)
    (1): ReLU()
    (2): Linear(in_features=33, out_features=1, bias=True)
    (3): Sigmoid()
  )
)

fold [0/10] is start!!
[01/0001] | train_loss:2.7342 val_acc:64.8649 val_loss:0.662
model is saved at epoch 1!![01/0002] | train_loss:2.5253 val_acc:70.2703 val_loss:0.6336
model is saved at epoch 2!![01/0003] | train_loss:2.3983 val_acc:72.0721 val_loss:0.6029
model is saved at epoch 3!![01/0004] | train_loss:2.3821 val_acc:72.973 val_loss:0.565
…
