…
net_params={'num_layers': 3, 'hidden': 64, 'dropout': 0.1, 'ds_name': 'Mutagenicity', 'model_type': 'ThreeModel', 'temperature': 0.5, 'beta': 1, 'gama': 0.0005, 'yta': 50, 'alpha': 1, 'in_channels': 14, 'out_channels': 2, 'device': 'cuda:1'}
train_config={'epochs': 300, 'batch_size': 128, 'seed': 8971, 'patience': 50, 'lr': 0.005, 'weight_decay': 1e-05}
EnsNet(
  (model1): SAGPool(
    (convs): ModuleList(
      (0): SAGEConv(14, 64)
      (1): SAGEConv(64, 64)
      (2): SAGEConv(64, 64)
    )
    (pools): ModuleList(
      (0): SAGPooling(
        (score_layer): GCNConv(192, 1)
      )
    )
    (lin1): Linear(in_features=384, out_features=64, bias=True)
    (gsnorm): GraphSizeNorm()
    (bns): ModuleList(
      (0): BatchNorm(64)
      (1): BatchNorm(64)
      (2): BatchNorm(64)
    )
    (lin2): Linear(in_features=64, out_features=32, bias=True)
    (lin3): Linear(in_features=32, out_features=2, bias=True)
  )
  (model2): SAGPool(
    (convs): ModuleList(
      (0): SAGEConv(14, 64)
      (1): SAGEConv(64, 64)
      (2): SAGEConv(64, 64)
    )
    (pools): ModuleList(
      (0): SAGPooling(
        (score_layer): GCNConv(64, 1)
      )
      (1): SAGPooling(
        (score_layer): GCNConv(64, 1)
      )
      (2): SAGPooling(
        (score_layer): GCNConv(64, 1)
      )
    )
    (lin1): Linear(in_features=128, out_features=64, bias=True)
    (gsnorm): GraphSizeNorm()
    (bns): ModuleList(
      (0): BatchNorm(64)
      (1): BatchNorm(64)
      (2): BatchNorm(64)
    )
    (lin2): Linear(in_features=64, out_features=32, bias=True)
    (lin3): Linear(in_features=32, out_features=2, bias=True)
  )
  (model3): GlobalAttentionNet(
    (convs): ModuleList(
      (0): SAGEConv(14, 64)
      (1): SAGEConv(64, 64)
      (2): SAGEConv(64, 64)
    )
    (att): GlobalAttention(gate_nn=Linear(in_features=64, out_features=1, bias=True), nn=None)
    (dropout): Dropout(p=0.3, inplace=False)
    (gsnorm): GraphSizeNorm()
    (bns): ModuleList(
      (0): BatchNorm(64)
      (1): BatchNorm(64)
      (2): BatchNorm(64)
    )
    (lin1): Linear(in_features=64, out_features=64, bias=True)
    (lin2): Linear(in_features=64, out_features=2, bias=True)
  )
  (confiNet): Sequential(
    (0): Linear(in_features=66, out_features=33, bias=True)
    (1): ReLU()
    (2): Linear(in_features=33, out_features=1, bias=True)
    (3): Sigmoid()
  )
)

fold [0/10] is start!!
[01/0001] | train_loss:2.6118 val_acc:61.6628 val_loss:0.6731
model is saved at epoch 1!![01/0002] | train_loss:2.3336 val_acc:64.8961 val_loss:0.6088
model is saved at epoch 2!![01/0003] | train_loss:2.2581 val_acc:77.8291 val_loss:0.504
model is saved at epoch 3!![01/0004] | train_loss:2.1762 val_acc:77.8291 val_loss:0.4743
…
