…
net_params={'num_layers': 3, 'hidden': 64, 'dropout': 0.1, 'ds_name': 'REDDIT-MULTI-12K', 'model_type': 'ThreeModel', 'temperature': 0.1, 'beta': 2, 'gama': 0.01, 'yta': 200, 'alpha': 1, 'in_channels': 1, 'out_channels': 11, 'device': 'cuda:2'}
train_config={'epochs': 300, 'batch_size': 256, 'seed': 8971, 'patience': 50, 'lr': 0.001, 'weight_decay': 1e-05, 'train_config': 10}
EnsNet(
  (model1): SAGPool(
    (convs): ModuleList(
      (0): SAGEConv(1, 64)
      (1): SAGEConv(64, 64)
    )
    (pools): ModuleList(
      (0): SAGPooling(
        (score_layer): GCNConv(128, 1)
      )
    )
    (lin1): Linear(in_features=256, out_features=64, bias=True)
    (gsnorm): GraphSizeNorm()
    (bns): ModuleList(
      (0): BatchNorm(64)
      (1): BatchNorm(64)
    )
    (lin2): Linear(in_features=64, out_features=32, bias=True)
    (lin3): Linear(in_features=32, out_features=11, bias=True)
  )
  (model2): SAGPool(
    (convs): ModuleList(
      (0): SAGEConv(1, 64)
      (1): SAGEConv(64, 64)
    )
    (pools): ModuleList(
      (0): SAGPooling(
        (score_layer): GCNConv(64, 1)
      )
      (1): SAGPooling(
        (score_layer): GCNConv(64, 1)
      )
    )
    (lin1): Linear(in_features=128, out_features=64, bias=True)
    (gsnorm): GraphSizeNorm()
    (bns): ModuleList(
      (0): BatchNorm(64)
      (1): BatchNorm(64)
    )
    (lin2): Linear(in_features=64, out_features=32, bias=True)
    (lin3): Linear(in_features=32, out_features=11, bias=True)
  )
  (model3): GlobalAttentionNet(
    (convs): ModuleList(
      (0): SAGEConv(1, 64)
      (1): SAGEConv(64, 64)
      (2): SAGEConv(64, 64)
    )
    (att): GlobalAttention(gate_nn=Linear(in_features=64, out_features=1, bias=True), nn=None)
    (dropout): Dropout(p=0.3, inplace=False)
    (gsnorm): GraphSizeNorm()
    (bns): ModuleList(
      (0): BatchNorm(64)
      (1): BatchNorm(64)
      (2): BatchNorm(64)
    )
    (lin1): Linear(in_features=64, out_features=64, bias=True)
    (lin2): Linear(in_features=64, out_features=11, bias=True)
  )
  (confiNet): Sequential(
    (0): Linear(in_features=75, out_features=37, bias=True)
    (1): ReLU()
    (2): Linear(in_features=37, out_features=1, bias=True)
    (3): Sigmoid()
  )
)

fold [0/10] is start!!
[01/0001] | train_loss:8.9715 val_acc:22.0638 val_loss:2.3031
model is saved at epoch 1!![01/0002] | train_loss:8.2084 val_acc:25.9228 val_loss:1.9788
model is saved at epoch 2!![01/0003] | train_loss:7.8275 val_acc:34.2282 val_loss:1.7879
model is saved at epoch 3!![01/0004] | train_loss:7.5901 val_acc:35.151 val_loss:1.7346
…
